hw2/saved_models/recognition.pth (torch, 136223 bytes, 4 tensors)

net.0.W f4 [32, 1024]
000000 85 ca 90 be ee d4 67 3f 76 19 16 3f 61 bd c4 3f
       -0.2827951 0.9055928 0.586326 1.5370294
000010 c0 28 0f 3f 7a 12 f9 3e 80 6d b6 3d 65 7d c3 bf
       0.55921555 0.4864691 0.08907604 -1.5272642
000020 28 88 1e 3f 0d ad 4d 3f 9e 5f b8 bf bb 88 4e 3e
       0.6192651 0.8034218 -1.440418 0.20169346
000030 2f 34 93 bf 09 ae de 3e 01 99 aa be 53 75 f1 3f
       -1.15003 0.43492153 -0.33319858 1.886393
000040 8a 15 6c bf f9 cd 34 3f b3 2e 46 3f b1 84 aa 3f
       -0.92220366 0.7062679 0.7741501 1.3321744
000050 72 3b 1d 3f b0 10 0d bf d5 e5 b5 bf 90 76 0d bf
       0.6141883 -0.5510359 -1.4210764 -0.55259037
000060 46 44 2b 3f 22 e1 0a 3c ee da d6 bf 97 b6 e8 3e
       0.6690105 0.008476527 -1.6785562 0.45451805
000070 c1 2e c4 3f b7 84 3b 3f 52 f3 37 c0 80 4f 7b bf
       1.5326768 0.7324938 -2.874226 -0.9816818
000080 0c 56 83 be b8 07 70 3f 4e da 63 bf bd a2 a7 3f
       -0.25651586 0.9376178 -0.8900498 1.3096539
000090 ee 2b da bc 1e 0f 37 3e 22 98 a2 3e f8 50 30 3f
       -0.026632275 0.1787686 0.31756693 0.6887355
0000a0 69 54 e2 bf bf f6 ae be c5 68 b5 bf ef 7b 98 3f
       -1.768201 -0.34172627 -1.4172598 1.1912822
0000b0 ab 6d 86 be 63 e4 e9 be 70 f0 26 be 96 3b 60 3c
       -0.26255545 -0.45682058 -0.16302657 0.013686081
0000c0 c2 e2 93 bf 72 88 d0 3e b6 81 92 bf 4d b4 93 bf
       -1.1553576 0.407291 -1.1445835 -1.1539398
0000d0 a9 74 7d 3f 7c f5 b1 bf 73 2e da be 17 ea 5d be
       0.99006134 -1.3903041 -0.42613563 -0.2167133
0000e0 09 81 41 3d 0e 25 6e 3e ba fd 19 c0 ff 2c d8 bf
       0.0472422 0.23256323 -2.4061112 -1.6888732
0000f0 07 76 a7 3e f4 f4 0c 3d 2c a1 d1 bf 91 89 00 bf
       0.32707235 0.034413293 -1.6377311 -0.5020991
000100 1b f2 04 40 18 19 90 be c1 7b b1 3e cb a4 0b 3f
       2.077277 -0.28144145 0.3466473 0.5454833
000110 be ec d9 3e dd 16 97 bd 91 95 d6 bd 12 4a d8 3f
       0.42563432 -0.07377408 -0.10477746 1.6897604
000120 6f ef 9b 3f a9 70 98 3e 85 5f 4d 3f d3 0e 05 3f
       1.2182444 0.29773453 0.80223876 0.51975745
000130 96 9f 46 be 22 7d 35 bd 81 1a 81 3e f7 d5 28 bf
       -0.19396815 -0.04430879 0.25215533 -0.65951484
000140 00 ee 61 bf dd d2 25 3f c2 ae 8b bf cf 72 48 bf
       -0.88253784 0.64774877 -1.0912707 -0.78300184
000150 43 7f 13 3f e0 1c db 3e 86 0c 91 be 40 3e f8 bd
       0.5761606 0.42795467 -0.28329867 -0.12121248
000160 96 75 81 be 66 5d bb be e6 f0 bc be 52 a7 b8 bd
       -0.25285023 -0.36594695 -0.3690254 -0.09016289
000170 db e3 44 be 21 c3 12 3f 44 a0 aa bf 98 e4 35 bf
       -0.19227545 0.57328993 -1.3330159 -0.7105193
000180 17 43 b2 be c8 16 bd be e1 7d b7 bf 0b 95 fd 3e
       -0.3481681 -0.36931443 -1.433529 0.49527773
000190 c7 be ca 3f d1 26 06 bd c5 f8 4d be 8d 30 09 c0
       1.5839471 -0.032751862 -0.2011443 -2.1435883
0001a0 4c d2 87 be 3c d0 a2 3f 11 7f d2 be fc 12 2d bf
       -0.2652763 1.2719798 -0.4111257 -0.6760709
0001b0 07 c3 c1 bf 54 35 bc bf 2e a9 1e bf f2 18 49 3e
       -1.5137643 -1.4703774 -0.619769 0.19638422
0001c0 4a de 63 bf 75 e1 06 3d 4f d0 38 3f 28 58 91 be
       -0.8901106 0.032929856 0.72192854 -0.2838757
0001d0 85 62 bb 3f b6 ff 48 3e 4e 07 26 bf 1e 2d e4 3f
       1.4639441 0.19628796 -0.64854896 1.7826269
0001e0 bf d7 4e 3f d6 35 4a 3e 23 6d e1 3e ef 94 cc be
       0.8079795 0.197471 0.44028577 -0.39957377
0001f0 da 28 ae 3e dc b3 1a bf 86 23 21 bf 2d 59 0a bf
       0.34015542 -0.60430694 -0.6294483 -0.5404232
000200 47 c4 b9 3e 05 2b e1 bd ea 66 9e bf dd 11 d6 3f
       0.3628256 -0.109945334 -1.2375157 1.6724201
000210 7e b3 de 3e b5 61 85 bc 13 db 81 3f db 72 c7 3f
       0.43496317 -0.016281942 1.0144981 1.5581926
000220 38 97 06 bf f9 ca ee be 61 af 92 be 51 e7 93 3f
       -0.5257449 -0.4663923 -0.28649428 1.1554967
000230 91 2c 12 3f 3a 83 07 3e 1c a3 d0 3f 3e ae 8a 3f
       0.5709925 0.13233653 1.6299777 1.0834424
000240 c0 4e c6 bd 23 62 61 bf 9e 16 8e 3e c3 be 5f bf
       -0.09682989 -0.8804037 0.2775163 -0.87400454
000250 79 69 83 3f a5 df 27 bf d2 7d b8 3e 9b 19 1a bf
       1.0266563 -0.6557563 0.36033493 -0.6019532
000260 73 93 0f c0 a8 3f df 3f 29 9d 91 3e 00 05 36 3f
       -2.2433746 1.7441301 0.28440216 0.7110138
000270 12 73 30 c0 ef 8f b0 3f 41 31 2e 3f d9 4b 3d 3f
       -2.7570233 1.3793925 0.68043905 0.7394386
000280 5b 31 68 bf 5a bc 1f 3e bf 3a 75 bf 4a eb 87 be
       -0.9070031 0.15599194 -0.95792764 -0.265467
000290 c4 4f 03 c0 22 75 6c bf 43 81 01 c0 da 21 2a bf
       -2.0517435 -0.9236623 -2.0235145 -0.66457903
0002a0 93 a0 18 3f 6f b9 91 3e 75 b4 3c 3f 3f 22 d4 bf
       0.59620017 0.28461787 0.73712856 -1.6572951
0002b0 27 58 c7 bf 40 ef 83 3f 4e fa 45 3e 8d cc b7 bf
       -1.5573777 1.0307388 0.19333765 -1.4359299
0002c0 50 39 6f 3f 71 2d 96 3f 63 40 85 bd 19 11 b1 3e
       0.93446827 1.1732618 -0.065064214 0.34583357
0002d0 2f 02 d8 3f 89 dd 03 c0 2c 61 87 3f b6 79 9d bf
       1.6875666 -2.0603964 1.057653 -1.2302768
0002e0 e4 2d f7 be 87 48 c7 3f 6a de 29 3f 5a 93 9f 3f
       -0.482772 1.5569009 0.66355 1.2466843
0002f0 eb a8 84 be c8 32 c2 be 83 e7 29 3f 66 9f 01 bf
       -0.25910124 -0.37929368 0.66368884 -0.5063385
000300 f7 5a c2 be 51 f7 ee bf de 2d d7 3f 66 76 ba bf
       -0.37960026 -1.8669225 1.6810873 -1.4567382
000310 fd ad dc 3e 42 01 0a 3f 96 e0 09 40 5d df 4b bf
       0.43101493 0.5390817 2.1543326 -0.796377
000320 1e 3e 5a be 6f 71 a0 3e 3f 73 95 bf 97 d2 5b 3f
       -0.21312758 0.31336543 -1.1675795 0.8586821
000330 aa e1 4f bf c9 83 09 3f e9 4a 8c 3f 10 a1 10 bf
       -0.8120371 0.53716713 1.0960361 -0.5649576
000340 3a de ec be 5d 84 0e 3f fd 69 e6 3f 92 07 92 3f
       -0.46263295 0.5567072 1.8001095 1.140856
000350 d5 7e 1b 3e aa 52 89 be fb 5f 74 bf d9 d2 a6 3f
       0.15185101 -0.2682088 -0.95458955 1.3033096
000360 e5 61 0e c0 a8 73 1f be b2 9c f1 be 78 07 4c 3f
       -2.224725 -0.15571463 -0.47189862 0.79698896
000370 01 63 86 be 4a 5e 01 3f 91 0a 69 3e aa 82 8d be
       -0.2624741 0.505345 0.22757937 -0.2763875
000380 d4 f9 58 bf 13 50 76 bf dc 05 89 bf e7 6f 01 bf
       -0.8475621 -0.96215934 -1.0704913 -0.50561374
000390 b4 5a c0 3e 8f 0b 91 3f 87 3d 06 40 73 ad 01 3f
       0.375692 1.1331652 2.0975053 0.5065529
0003a0 67 b1 52 bf 47 ec 8b be 2c 65 b7 bf e8 16 95 3f
       -0.82301944 -0.27328703 -1.432775 1.1647615
0003b0 cc 51 a5 bf 38 5f 29 bf 16 37 d4 bf 23 21 09 40
       -1.2915587 -0.6616092 -1.6579311 2.1426475
0003c0 8d 36 41 bf f2 49 46 3f 6c 37 a3 be 93 72 36 3f
       -0.7547386 0.7745658 -0.3187822 0.71268576
0003d0 40 9c 15 40 53 63 06 c0 15 78 24 bf ae cc 15 ba
       2.3376617 -2.0998123 -0.6424573 -0.00057143986
0003e0 d8 d3 06 bc 65 d0 09 c0 4c db 0a 40 ed 02 e7 3f
       -0.008229218 -2.1533444 2.1696348 1.8047768
0003f0 df 05 25 3e 98 14 89 bf c3 d2 82 be 36 fd e1 3e
       0.16115521 -1.070941 -0.25551423 0.44138497

net.0.b f4 [32]
000000 fd 73 6c bf 2a 13 27 c0 21 8a 8b bf ad 06 38 3c
       -0.92364484 -2.6105447 -1.0901529 0.01123206
000010 6c 9c 66 bf b4 7f 90 bf 03 e6 c8 bf d5 42 66 bf
       -0.9008243 -1.1288972 -1.5695194 -0.8994573
000020 7f 92 53 bd 66 a1 e6 bf 8f 85 2c bf df fc 66 3e
       -0.05165338 -1.8018005 -0.67391294 0.225574
000030 b8 c7 c5 bf 22 57 53 bf 8b 73 8e be 49 96 38 bf
       -1.5451574 -0.8255483 -0.27822527 -0.72104317
000040 01 95 c5 bf a6 db 8d bf 63 c6 5b bf e4 14 c5 bf
       -1.5436097 -1.1082656 -0.8584959 -1.5397
000050 c5 42 6f bf 73 76 b0 bf c8 da 98 be 01 10 f4 be
       -0.9346126 -1.3786148 -0.29854417 -0.4766846
000060 65 20 b9 bf 58 17 28 3d 42 33 4b bf 94 9a a9 bf
       -1.4463011 0.041037887 -0.7937509 -1.3250299
000070 a5 35 98 bf cf 99 98 bf f0 7e 55 bf e3 71 4f bf
       -1.1891371 -1.1921939 -0.83396816 -0.8103315

net.2.W f4 [26, 32]
000000 54 07 1a bf 00 3b a0 3f b1 0c f0 bd f0 ed 33 3f
       -0.6016743 1.2518005 -0.11721171 0.7028494
000010 0e 60 91 3e 45 a9 36 bf 16 5a 4b 3e c9 ac 1c bf
       0.28393596 -0.71352035 0.19858584 -0.6120115
000020 be 51 14 bf 8c 92 94 3f 8c c4 88 3d 73 d9 0c be
       -0.5793723 1.1607223 0.06678113 -0.13754825
000030 28 fe 8e 3f f7 60 af 3e df 89 88 bf 31 c9 b8 3f
       1.1171312 0.34253666 -1.0667075 1.4436399
000040 0a 71 33 3f bd f7 b6 be 9c af c2 be f3 fc 46 3f
       0.7009436 -0.35735884 -0.38024604 0.7772972
000050 28 aa 29 3f 46 a3 3c bf 0d 4e de 3e 23 20 66 3f
       0.6627526 -0.73686635 0.43418923 0.89892787
000060 18 1f bd be 96 dd 98 be 2c c1 32 be f0 33 45 3d
       -0.36937785 -0.29856557 -0.17456502 0.048145235
000070 a8 5c ae bf 6c c3 f2 3e 57 3b 93 be 5c 48 70 3e
       -1.3622026 0.4741472 -0.2875621 0.23465103
000080 59 36 82 3e 5b e5 28 3e 38 d4 21 3f 59 e8 5e 3f
       0.2543209 0.16493742 0.63214445 0.87073284
000090 e3 66 d6 3e 4f 8e f5 bd b8 16 83 bf 6c db 80 3d
       0.4187537 -0.11990034 -1.0241308 0.062918514
0000a0 ea c3 08 bf 66 67 08 c0 46 7f a1 be ad 5f c9 bd
       -0.5342394 -2.131311 -0.31542414 -0.09832702
0000b0 a1 0e 71 3f 73 65 c0 bd 4e 4a 60 3f c7 60 a2 bc
       0.94162947 -0.0939435 0.8761338 -0.019821538
0000c0 b3 9b 45 3f ab bd 9e 3e 14 af 8c be 8f 95 9d 3f
       0.77190703 0.3100408 -0.27477324 1.2311267
0000d0 b0 db 0d 3f b7 1f 77 ba d0 5e b8 3e 84 cc 3e bf
       0.5541334 -0.0009427028 0.36009836 -0.74530816
0000e0 6a ea aa bf 8d b6 79 3e 0c c0 c7 bb 1f 37 a9 3f
       -1.3352787 0.24386044 -0.006095892 1.3219947
0000f0 b3 49 f2 bd fd 99 3a bf e6 3e 9b be d1 01 d0 bf
       -0.11830463 -0.7289122 -0.30321425 -1.6250554
000100 d0 cc 6c 3d dd 72 83 bf 45 e1 f3 be 7c 92 26 bf
       0.057812512 -1.0269428 -0.47632805 -0.6506727
000110 43 ce 7c 3d 51 70 41 3d 7a b5 a2 3f 94 8f 23 be
       0.061720144 0.047226254 1.2711632 -0.1597274
000120 d0 53 94 3f 68 dd 17 3f 53 d5 26 3f a7 d9 7d bf
       1.1588078 0.59322214 0.65169257 -0.99160236
000130 51 3a cd be 10 9c 3b bf c4 b0 16 3f 64 90 44 3f
       -0.40083554 -0.7328501 0.5886347 0.7678282
000140 1a 65 0f 3f 0e ed 97 bf 09 32 38 bf 04 1e 57 bf
       0.56013644 -1.1869218 -0.7195135 -0.84030175
000150 19 97 e6 3e e2 78 ef bd de 99 02 3f 55 f5 0f 3f
       0.45037153 -0.116929784 0.5101603 0.5623372
000160 03 7a 6f 3e 40 1d 48 bf 6a 18 db bd 38 ad 58 3f
       0.23386388 -0.7816963 -0.10698016 0.8463931
000170 81 c7 5b bf 03 3e cf 3e 52 f2 80 bf 27 17 cb bd
       -0.85851294 0.40477 -1.007395 -0.09916525
000180 9a e9 90 3e 51 8d 14 3f 51 69 d9 3c cf 82 06 bd
       0.28303224 0.5802813 0.026539477 -0.032839593
000190 e4 1c e2 bd 3c 00 15 3f 67 66 d9 be 2b cb 29 3e
       -0.11040667 0.5820348 -0.4246094 0.16581409
0001a0 ee 06 28 bf 10 af 19 be 95 19 5a bf f4 81 84 be
       -0.65635574 -0.15008187 -0.85195285 -0.25880396
0001b0 59 10 ef 3e 36 f6 3f bf 79 c3 4b 3f cf af df bd
       0.4669216 -0.74985063 0.7959514 -0.10922205
0001c0 0e bf 07 bf 4d 8f 91 bf 25 dd 4f 3e 27 3f c8 3f
       -0.530259 -1.1371857 0.20299204 1.5644273
0001d0 8c d1 4a be 9e 1d 13 3f df fd 78 be 75 e3 4c bf
       -0.19806498 0.5746707 -0.24315594 -0.8003457
0001e0 8b 58 d0 3e c2 f5 33 be 91 44 6d 3f 9a 06 09 40
       0.40692553 -0.17574218 0.9268275 2.141028
0001f0 72 42 76 3e b5 52 53 be 2f df fb be 6b 92 a0 3e
       0.24048784 -0.20637019 -0.49193713 0.31361708
000200 17 7d 01 3e 9e b9 4f be e7 a1 1c be 82 f4 02 bf
       0.12645374 -0.20285651 -0.15296136 -0.5115434
000210 2a ff 1c bd b7 5c 77 3e e4 6a 8e 3e 8a be 0c 3f
       -0.03832928 0.24156462 0.27815926 0.5497824
000220 c6 b8 c9 3e 84 cd 94 be 17 66 b0 3f a2 ca 59 bd
       0.39398783 -0.29063046 1.3781155 -0.05317176
000230 2c fe c3 3d e4 7d 72 3e 15 9d 40 bf 9e ae 46 3f
       0.09569964 0.23680836 -0.7523969 0.77610195
000240 4a 7e b3 be 39 53 93 bc e4 6c e6 3e bf f4 af 3e
       -0.35057288 -0.01798402 0.45004952 0.34366414
000250 5e 4e 39 be 99 c6 3a 3e 8a 85 27 3c 98 62 6d 3e
       -0.18096301 0.18239821 0.010224709 0.23182142
000260 ef ef 60 be 35 75 ad be 3b 1d 18 3f 83 e5 ee 3e
       -0.21966527 -0.33878484 0.594196 0.4665948
000270 55 bb 85 3e 6d ad 31 bf 9c 46 d9 bc ec 8b fe 3e
       0.26119485 -0.6940525 -0.026522927 0.49716127
000280 76 e7 8b 3f ae 9a 04 c0 cf b8 32 bf f4 b3 b0 be
       1.0930011 -2.071941 -0.69813246 -0.34512293
000290 36 fb d8 3f 40 01 27 be c8 99 88 3e a5 39 37 bf
       1.6951663 -0.1630907 0.26679826 -0.71572334
0002a0 45 2d 36 3e f0 d3 0b be 3f e4 49 3e 13 ff d3 3e
       0.17790706 -0.13655066 0.19715975 0.41405544
0002b0 27 70 8b be ba 51 80 bf 67 cb 94 bf ec 65 55 be
       -0.27234003 -1.0024941 -1.1624573 -0.20839661
0002c0 12 e9 aa be c8 5d 81 3f 2f f3 65 be dc f6 12 3e
       -0.33380944 1.0106745 -0.22456048 0.14351982
0002d0 5e 7e 13 3f 5f 28 2f be cd 8f aa be ab ed 6d bf
       0.57614696 -0.17105244 -0.33312836 -0.9294078
0002e0 8c 51 c4 3f 05 da 57 be 54 09 3b bd 01 89 7c bd
       1.5337386 -0.21079262 -0.045663193 -0.061654095
0002f0 06 7c 85 3c c2 d2 94 3f 78 06 83 3f 54 b7 e3 bd
       0.01629449 1.1626818 1.0236349 -0.111189514
000300 a0 53 f6 be e8 ac 42 bf 5a 8c 1d bf 0f 74 4e 3f
       -0.48110676 -0.76045084 -0.61542284 0.8064584
000310 4a 03 5c bf fe 90 5e be 64 91 dd be 49 28 c7 3f
       -0.8594252 -0.21734998 -0.43274987 1.5559169
000320 17 c5 ae be 80 ea 6a 3d 3b f0 44 3e 57 89 53 bf
       -0.34134743 0.057352543 0.19232266 -0.8263144
000330 08 67 af bf bc fc 1d 3f 95 9a ce 3f 0a 89 cb be
       -1.3703318 0.6171377 1.6140925 -0.3975299
000340 31 5f 54 3f 08 9d ed 3d 94 0e bf bf 7b fe 4d 3f
       0.8295775 0.11602217 -1.4926324 0.8046643
000350 e1 20 02 3f 08 3e f3 be b9 b3 40 3e 73 21 8d be
       0.5083142 -0.47508264 0.18818559 -0.27564582
000360 e8 17 4c 3f 7d dc 8c bf 56 0a 44 bf 3f 0a 83 3f
       0.7972398 -1.1004788 -0.7657827 1.0237502
000370 fe ad 21 be f4 4f 9c be 43 ad ed be 2b 9e b2 3e
       -0.15789029 -0.3052975 -0.4642125 0.34886298
000380 28 fc 3a bd fd da 91 be f3 32 73 3f fc 9b 03 be
       -0.04565063 -0.28487387 0.9499962 -0.12852472
000390 01 0e 11 bf e2 87 f6 3e aa d6 ad be ba 15 ce be
       -0.56661993 0.48150545 -0.33952838 -0.4025095
0003a0 06 43 e8 be 24 3e a6 3e 7e ba 52 bf bb 33 61 3f
       -0.45363635 0.32469285 -0.82315814 0.8796956
0003b0 b0 4a 7a 3f 71 7a b5 bf 87 6a 86 bf a3 f2 c7 bb
       0.97770214 -1.4177991 -1.050126 -0.0061019226
0003c0 6e 2e c9 3e e0 f4 11 bf 9f db 9d 3e 95 7d 8f bf
       0.39293236 -0.57014275 0.3083162 -1.12102
0003d0 53 98 5c 3f f7 bf c8 3e 11 f9 8d be 69 b4 99 be
       0.8616993 0.39208958 -0.27729085 -0.30020455
0003e0 35 f5 55 bf af 35 97 be e8 db ca 3e d4 ea 36 3f
       -0.8357728 -0.29533145 0.396209 0.7145207
0003f0 36 a6 76 3f 0a 32 4a be 91 cf 92 3f 54 c9 e1 be
       0.9634737 -0.19745651 1.1469594 -0.44098914

net.2.b f4 [26]
000000 83 ac 39 3f f5 ce 8a 3d c7 1e fb be 42 59 8c bf
       0.72528857 0.06777755 -0.4904692 -1.0964739
000010 17 7e 73 be 17 41 e1 bf 95 d9 55 3d ae ed a3 3f
       -0.23778568 -1.7597989 0.052209456 1.2806909
000020 09 5f ec 3f 36 7c 84 bf ef ce 0c 3f 8a b8 ed 3e
       1.8466502 -1.0350406 0.55003256 0.46429855
000030 13 5b 9d be 6f 76 24 3f fc 61 62 bf 1f 13 65 be
       -0.30733547 0.64243215 -0.8843076 -0.22370575
000040 20 9d c2 3e bd 1c 70 bf 58 9f 4c bf b4 40 2b 3f
       0.38010502 -0.9379385 -0.7993064 0.66895604
000050 9d 49 c5 3c 18 6f 11 c0 65 62 70 bc 45 57 a4 be
       0.024082953 -2.2724056 -0.014671897 -0.3209783
000060 69 7f 79 3f 88 64 b6 be
       0.9746004 -0.35623574
