hw5/models/model_epoch40.pth (torch, 327533 bytes, 36 tensors)

cnn.0.weight f4 [16, 3, 3, 3]
000000 49 76 e3 bd 13 d6 fb 3d 23 92 8d 3d 74 ea 75 3d
       -0.111065455 0.12296691 0.06912639 0.060038045
000010 23 15 99 bd 88 de aa 3d 6d 48 c7 3b d7 b0 27 bd
       -0.07474735 0.08343226 0.006081632 -0.040940132
000020 51 01 14 be 4f 2d 1b 3c ec ed 9a 3d 0f 51 45 bd
       -0.14453627 0.009471252 0.07564911 -0.048173007
000030 2e ed 50 3e db 57 36 3e 29 c3 69 3e 19 2d 55 be
       0.20402977 0.17806952 0.22828354 -0.20817985
000040 f0 04 79 be f8 04 09 be b0 77 9f 3c 3b 78 ea bd
       -0.2431829 -0.13380802 0.019466251 -0.114487134
000050 85 07 38 3e 1f 87 7f 3d ee 22 9c 3e f3 3e 32 3e
       0.17971618 0.06238472 0.304954 0.17406826
000060 85 9c bc bd aa de 7b be 84 df 95 be a9 86 9c 3c
       -0.09209541 -0.24596658 -0.2927209 0.01910718
000070 3b 9f 18 be b5 05 2f be 1e 64 ac bc 3b d7 1d bb
       -0.14904492 -0.17092021 -0.021043833 -0.0024084586
000080 1e 04 0d 3e 92 93 55 bc b1 44 1c 3e 4a c2 25 3d
       0.13771102 -0.013035672 0.15260579 0.04046849
000090 82 bd 91 be 63 63 87 be 52 ff 02 be ad 8c 55 bd
       -0.28464895 -0.26443014 -0.1279271 -0.052136112
0000a0 9d 71 17 bd 9d 42 a3 3d 76 69 8e 3e ca a6 83 3e
       -0.036973584 0.0797169 0.27814835 0.25713187
0000b0 c9 f1 30 3e b2 48 8d be 34 00 24 bd 85 cc b0 bd
       0.17279734 -0.27594525 -0.040039256 -0.08632759
0000c0 53 bf bc bc db 26 b3 3d e8 3e 24 be f6 00 6e 3e
       -0.02304045 0.087476455 -0.16039622 0.23242554
0000d0 d2 3f 29 3a ef c1 85 3e 7b 3b 26 bd 1d 7b 90 3e
       0.00064563483 0.26124522 -0.04058407 0.28218928
0000e0 3d 71 28 bd 6d b6 45 be 05 63 79 3d 1f 7d 5d 3e
       -0.041123617 -0.19307871 0.060885448 0.21629761
0000f0 ff af 4c be b7 f9 56 bd a2 94 7e bd 91 96 d3 bd
       -0.19989012 -0.05248424 -0.062153466 -0.10331453
000100 6a 92 9a 3e 71 b6 45 3e ca c6 15 be e3 ca c6 3d
       0.3018983 0.19307877 -0.14626613 0.09706666
000110 94 d8 95 3c 75 cf 8b be 91 15 c2 bd 56 6e a0 3d
       0.018291749 -0.27306715 -0.0947677 0.07833545
000120 33 9a 1a bc da e3 1b 3e 0f 0f 5d 3d 72 76 4f be
       -0.009436178 0.15223637 0.05396944 -0.20260027
000130 88 44 c6 3d 84 bc 1c 3e 23 8d 93 be 98 cb f6 bd
       0.0968104 0.15306288 -0.28818616 -0.12050551
000140 f2 4c 13 3e 4f 78 42 bd 4e 32 92 3e 16 79 44 bc
       0.14384821 -0.047478016 0.28554004 -0.01199176
000150 1f c5 b2 3c b7 3f 5e 3d 41 1c 31 be e1 c8 fa bc
       0.02182251 0.054259982 -0.17295934 -0.030613365
000160 89 fb 30 3e 59 43 4b be da 64 b0 be 1d 95 90 3e
       0.17283453 -0.1984991 -0.34451944 0.28238764
000170 66 b1 26 3e 87 f4 c1 bd 79 df 94 3e 54 3e 0b be
       0.1627861 -0.09470468 0.29076746 -0.13597995
000180 4d 4b 69 3e 65 13 91 3d e3 4f cf bc 0f 77 02 be
       0.22782631 0.07083777 -0.025306648 -0.1274073
000190 1c 80 66 3e de f8 16 3d 1e 3b 34 be 25 c4 96 3e
       0.22509807 0.036858432 -0.17600676 0.2944652
0001a0 45 50 5f be f5 28 e8 3d e0 a9 9b 3d 35 1d 11 be
       -0.21807964 0.11335937 0.076007605 -0.14171298
0001b0 ba ca ff 3c ab 21 ca bd 53 7b 0b be 6f 23 48 3e
       0.031224597 -0.09869703 -0.13621263 0.19544767
0001c0 2c 72 86 3e 8e bf 6e 3e dc 51 3d be c1 fc 73 bd
       0.2625898 0.2331526 -0.18488258 -0.059567217
0001d0 b6 aa ea 3c 31 d2 b4 be 49 d3 20 bd 53 29 f4 be
       0.028645854 -0.35316613 -0.039263997 -0.47687778
0001e0 38 0d 6f be 83 20 e0 bd 2d be ef 3d 4b 79 63 be
       -0.23344886 -0.10943701 0.11706195 -0.22214238
0001f0 29 bf 83 bd 08 c8 21 be 45 00 ec 3d 93 4f ac bd
       -0.06432945 -0.15798962 0.11523489 -0.08413615
000200 7e 9a bd bc a4 2e ea 3d 71 78 88 3c 64 d7 03 3d
       -0.023144957 0.11434677 0.016658993 0.032187834
000210 b7 45 89 be a2 10 06 3e a2 83 fc bc ae b1 eb 3c
       -0.26811 0.13092282 -0.030824486 0.028771248
000220 86 67 6c 3d c6 13 e7 bd d6 12 2d 3e 4a 88 8b bd
       0.057715915 -0.11283068 0.16901717 -0.068131045
000230 d3 bf a1 3d b8 f9 89 3d 1a dc 92 3c 35 f2 72 be
       0.07897916 0.06737083 0.017927218 -0.23725207
000240 f2 41 86 3e 11 f0 11 3e af 2f 4e be eb 20 89 3d
       0.26222187 0.14251734 -0.20135377 0.06695732
000250 5d 04 a6 3c f3 1d 2f be b2 a7 3e 3e b3 49 42 be
       0.020265752 -0.17101268 0.18618658 -0.18973427
000260 67 a8 b7 bd 89 17 8b 3d eb ad 01 3e e3 82 ee bd
       -0.08967667 0.06791598 0.12664 -0.116460584
000270 57 b1 85 3d 84 b0 dd 3d 88 98 9e bd 6a 72 6a 3e
       0.065279655 0.10824683 -0.07743937 0.22895208
000280 61 bb 25 be 52 e9 6e be cf 65 c4 3d bc 30 e5 3c
       -0.1618476 -0.23331192 0.09589731 0.02797734
000290 4e 14 d4 3d bb 02 7d bc af 7d ed bd ed bd 07 be
       0.10355435 -0.0154425455 -0.11596238 -0.13256045
0002a0 b5 80 17 be 56 70 2d 3e b6 92 8e 3c 41 f8 98 3e
       -0.14795192 0.16937384 0.017403942 0.29876903
0002b0 b0 74 28 3e ee be b0 3e f4 38 83 be 1d 03 53 be
       0.16450763 0.34520668 -0.2562939 -0.20606656
0002c0 20 e8 11 be ba fd fe bc a4 7e 03 bd ce 59 04 be
       -0.14248705 -0.031126846 -0.032103196 -0.12924883
0002d0 2b 2c 70 3e 73 1f 87 bd 18 08 75 3e b2 a5 bc bd
       0.23454349 -0.06597795 0.23928869 -0.092112914
0002e0 79 09 07 3d e9 d3 52 be 33 97 34 be 7a d5 b9 3d
       0.03296802 -0.2058865 -0.17635803 0.090739205
0002f0 ab c1 4d bd e6 65 6e 3c 04 c3 dc bd 76 9b 8e 3d
       -0.050233524 0.014550662 -0.10779384 0.069632456
000300 5c 51 65 3e c5 c9 66 be d4 fe 20 3d 3f 1f 8a 3e
       0.22394317 -0.22537906 0.039305523 0.26976964
000310 d2 7b aa be 7c b6 f7 3c 4c 41 ed bc c5 63 7a be
       -0.33297592 0.030238383 -0.0289618 -0.24452122
000320 e2 03 5f 3e 6e bd 93 3d 0d c3 40 be cd bf bf 3d
       0.21778825 0.07213865 -0.18824406 0.09362755
000330 13 9d 5a 3d 9a 25 9c be ae 69 01 3e eb c4 08 3c
       0.053372454 -0.30497438 0.1263797 0.00834773
000340 d3 3e 62 be 89 f4 cc 3d 73 f9 eb 3d d8 d0 00 be
       -0.22094278 0.10007579 0.11522188 -0.12579668
000350 e3 36 45 3e a9 d6 18 3e eb a6 a1 be 5b 9e 2b 3d
       0.19259219 0.14925636 -0.3157266 0.041899066
000360 48 40 2b 3e 52 7b df bd e4 b8 16 be c3 d7 0b 3e
       0.1672374 -0.10912193 -0.14718968 0.13656525
000370 6b 2a 79 3d af bc 66 bd ee 2c aa 3c 30 23 f7 ba
       0.06083147 -0.056332286 0.020773377 -0.0018855091
000380 1f fa 57 bd be 13 8b 3e e0 9d c8 bd 1f 63 77 be
       -0.05272877 0.271635 -0.09795737 -0.24158905
000390 de c0 da 3d 4b d2 5b bd 43 f0 16 be 75 8d 81 3e
       0.10681318 -0.053667348 -0.1474009 0.25303236
0003a0 d1 83 42 3e 54 e6 97 be 73 49 81 3d cf 20 f2 3c
       0.18995596 -0.29667914 0.063128375 0.02955666
0003b0 87 80 30 be 9b 1e 7c 3e bc 77 23 bd 8f 8c 1f be
       -0.1723653 0.2462105 -0.03990911 -0.15580963
0003c0 a7 a1 3f 3e 99 f7 c7 bc 0d 18 03 be 2e 1c 03 3e
       0.18714009 -0.024410056 -0.12802143 0.12803718
0003d0 af 7e a7 bc bf 1a a8 be fa 6e 1b 3d 15 0f 87 3d
       -0.02044615 -0.32832906 0.037947632 0.065946735
0003e0 99 b5 d7 bd 7a d7 7d bd 05 9c e3 3d b0 8e 0e 3e
       -0.10532684 -0.061973073 0.11113743 0.13921618
0003f0 6a 0a 93 3d fb 0c 57 be 0d a2 9c be 7e 0b 99 3d
       0.07179721 -0.21001045 -0.30592385 0.07472895

cnn.0.bias f4 [16]
000000 7b 02 1c 3e c9 3c 90 bb 3c 90 2f be 99 65 f2 bd
       0.15235321 -0.0044017774 -0.17144865 -0.118357845
000010 07 79 4e 3c dd 6d 46 be b5 12 37 3c 71 98 72 bd
       0.012602097 -0.19377847 0.011173894 -0.05922741
000020 84 9a 80 be af a9 b6 bd 64 8a 90 be 89 c5 86 bd
       -0.25117886 -0.08919083 -0.28230584 -0.065806456
000030 54 60 12 3e dc 51 2e be 26 ac 14 3e f4 06 4e bb
       0.14294559 -0.17023414 0.14518794 -0.003143725

cnn.1.weight f4 [16]
000000 18 9b 58 3f 23 c7 a2 3f 4b c8 68 3f d7 96 24 3f
       0.84611654 1.2717022 0.9093062 0.64292663
000010 28 27 34 3f 4c 55 6e 3f 13 cc 81 3f ba ba 22 3f
       0.7037225 0.930989 1.0140404 0.6356617
000020 1b ea 96 3f ab fe 64 3f 60 0c 54 3f 0e 8d 94 3f
       1.1790193 0.8945109 0.8283138 1.1605546
000030 42 9c 47 3f 6a 57 89 3f 6b 64 50 3f 1b 50 81 3f
       0.77972806 1.0729802 0.81403226 1.0102571

cnn.1.bias f4 [16]
000000 6a 10 1a bd 73 27 e3 bd 59 3a 57 bd 66 43 3f 3f
       -0.03761331 -0.11091509 -0.05254588 0.74712217
000010 ae 20 13 be e6 60 54 bc 7d 43 85 3b b6 40 03 3f
       -0.14367935 -0.0129625555 0.004066883 0.51270616
000020 63 1a ad bc b1 36 61 3e 3f 07 06 3f f7 dd a9 bd
       -0.021130746 0.2199352 0.52354807 -0.082942896
000030 2f 1d 09 3f 6d 5e 4a 3b 3f 89 ea 3e 27 95 80 bc
       0.53560156 0.0030879036 0.45807835 -0.015696121

cnn.1.running_mean f4 [16]
000000 a7 cd 1e 3e 4a 81 c3 bc 58 50 2b be 53 b5 23 be
       0.15508138 -0.02386536 -0.16729867 -0.15987138
000010 e3 70 ba 3d b8 2d 42 be bf ab f4 3c 01 ce 1a bd
       0.09103563 -0.18962753 0.029867051 -0.037794117
000020 42 d0 7f be 56 c0 ee bd 96 9d 86 be ae e0 a4 bd
       -0.24981788 -0.11657779 -0.26292104 -0.08050667
000030 c6 a1 26 3e a5 d1 30 be f2 7a f0 3d ca 27 6e 3c
       0.16272649 -0.17267473 0.117422 0.014535854

cnn.1.running_var f4 [16]
000000 d5 6f 89 3d fe 02 3a 3e 36 d6 16 3e ee 7e de 3d
       0.067107834 0.18165204 0.14730152 0.10864054
000010 69 a7 b3 3e 61 e3 b7 3d 1c 77 e2 3d 79 b2 60 3d
       0.3508866 0.08978916 0.110578746 0.054857705
000020 ed 30 02 3e 84 ee 13 3e 67 19 a3 3d 22 31 19 3e
       0.12713976 0.14446455 0.079638295 0.14960149
000030 3a a7 56 3d 4f e9 03 3e da fa 9c 3d 41 32 24 3e
       0.052405573 0.12881969 0.07665034 0.16034795

cnn.4.weight f4 [32, 16, 3, 3]
000000 e7 17 21 bd e8 b1 9e 3d cd 68 0c bd 5b cb 90 3d
       -0.039329436 0.07748777 -0.034279633 0.07070037
000010 b1 ff 1f 3e 61 08 73 3d d8 8c 98 3c 4c c9 ea 3c
       0.15624882 0.059334163 0.018621847 0.028660439
000020 f1 3b db 3d 01 b9 d4 3d 5d ad 07 3e 95 0c 07 3e
       0.10704792 0.10386849 0.13249727 0.13188393
000030 d0 90 88 3c ee 72 18 bd d6 1f ee 3d df 9b 9c 3c
       0.016670614 -0.03721898 0.11627166 0.019117294
000040 67 4c c6 3c ff 53 1f 3d c4 79 12 3b d4 e2 ca 3d
       0.024206353 0.038898464 0.002235041 0.09906545
000050 eb 66 d0 bc c1 3f b8 3b 59 d7 f1 3d ea 98 12 3e
       -0.0254397 0.0056228344 0.118086524 0.14316145
000060 ca 8b a1 3b fe 08 b8 3c 4c bf 25 3e 8a cb 8a bd
       0.0049299942 0.022465225 0.16186255 -0.06777103
000070 37 b7 69 3a 72 4c f3 bb 16 44 9f bc 48 a4 80 3d
       0.0008915546 -0.0074248845 -0.019441646 0.06281334
000080 5d cb cb 3d 7a 05 65 be aa 33 23 be f5 73 8e 3d
       0.09950898 -0.2236537 -0.15937677 0.06955711
000090 d5 1a a6 3d 68 05 48 bb 40 1b 6c bd ac ff cd 3d
       0.081105866 -0.00305208 -0.057643175 0.10058531
0000a0 66 cc a5 3c cb 84 37 be e9 2a 87 bc 3b 74 cb bb
       0.020239066 -0.1792175 -0.016499953 -0.006208924
0000b0 98 46 41 bd 27 0e ab be c7 81 6d be 28 6f c6 bc
       -0.047186464 -0.33409235 -0.23194037 -0.024222925
0000c0 34 00 72 be ea 8f ab be 89 52 2f be 66 40 8e be
       -0.2363289 -0.33508235 -0.17121328 -0.27783507
0000d0 6f a2 98 be 98 e4 61 be 89 43 f7 3d 28 a0 c3 3d
       -0.29811427 -0.22059858 0.12073428 0.09552032
0000e0 53 ce ea 3c bf a6 6e 3d 46 d1 e4 3c 8d 15 a0 bd
       0.028662836 0.05826449 0.02793182 -0.078166105
0000f0 bb a5 c2 bd 2d 12 6a 3d a9 20 6f 3d dd 9b 1d 3d
       -0.09504267 0.05714624 0.058380757 0.03847872
000100 99 04 f1 bd 73 98 30 bd 44 58 4c 3d 5a e0 81 bc
       -0.11768455 -0.043114137 0.049888864 -0.01585405
000110 1e 44 b0 bd 75 ca 98 bb a5 5d b1 bd 69 36 a7 3c
       -0.08606742 -0.0046628066 -0.086604394 0.020411687
000120 1e 74 a4 be 87 d4 4f be 71 3a 4d be 01 03 aa be
       -0.3211984 -0.20295916 -0.20041825 -0.33205417
000130 8b 84 b1 be d4 c7 69 be 20 5b ac be a0 56 13 bf
       -0.34671435 -0.22830135 -0.33663273 -0.57554054
000140 9b 61 cd be 2b 10 35 3d 80 b3 42 3d 0e 37 87 3d
       -0.4011353 0.044204872 0.047534466 0.06602298
000150 3f ce 4e 3c c3 48 fe 3c fa d5 0c 3e 63 80 48 bc
       0.012622415 0.031040555 0.137535 -0.012237641
000160 61 29 fc bd 7e e0 dd bc 03 fe 93 bd d4 03 aa 3d
       -0.1231258 -0.027084585 -0.07226183 0.083015114
000170 50 e0 f5 3c 82 5c 12 3d d5 45 6b bd f4 6d 05 3d
       0.030014187 0.035732754 -0.057439644 0.032575563
000180 91 87 1b be ae cb 34 be 54 79 9c be a2 10 55 3e
       -0.15188433 -0.17655823 -0.30561316 0.20807126
000190 72 2b ff bc e9 34 55 bd c9 25 e0 3d 87 c2 07 3e
       -0.031148646 -0.052052412 0.10944707 0.132578
0001a0 62 3c ac 3a ec 22 88 bc 7e e4 f8 3d 19 ab e8 3d
       0.0013140554 -0.016618215 0.121529564 0.11360759
0001b0 75 59 52 3d d3 61 42 3d 5f 7e e5 bc ac 3a 00 bd
       0.051354844 0.047456574 -0.02801436 -0.031305954
0001c0 a6 13 00 3e 14 d7 58 3d 95 24 62 3d ee 8e b8 3c
       0.12507495 0.05293949 0.05521067 0.022529092
0001d0 a6 8d 21 bc 36 67 9c 3d bc c9 df ba 8e 08 e5 bd
       -0.009860432 0.076368734 -0.0017073671 -0.11183272
0001e0 35 db 1a bd e9 29 88 3d 6d f4 77 3c ae 0d 06 be
       -0.03780671 0.06648619 0.015133959 -0.13091156
0001f0 f7 8f 0e 3d f3 74 2d 3e 8c 7a 5b bd 09 c2 73 bd
       0.034805264 0.16939144 -0.053583667 -0.05951122
000200 cc c3 2f 3d ee 94 b6 3d e1 ac 56 3c 86 47 a9 3d
       0.042911336 0.08915125 0.013102741 0.08265595
000210 b1 bf e1 bd 5c ca 96 bc 32 3b 1b 3d 05 73 81 bd
       -0.1102289 -0.01840704 0.03789825 -0.06320766
000220 f6 38 c1 bd f5 ca 93 3d 54 43 3a bd fe cb f0 bd
       -0.094346926 0.07216445 -0.045474365 -0.117576584
000230 a6 90 98 bd aa 82 01 be 5d 9b 1c be cc 8a 41 bc
       -0.074494645 -0.126475 -0.15293641 -0.011812877
000240 be 5c 87 bd 0c b9 a5 be ed b6 a3 be 5d 47 37 3d
       -0.06609486 -0.32367742 -0.319755 0.04474579
000250 7a 36 c2 bd fd 5f 18 be 23 9c 7d 3d 8e 8f 37 3d
       -0.09483047 -0.14880367 0.06191648 0.04481464
000260 9a 9e a0 3d e5 a3 0c bd 05 19 2f be 08 06 17 be
       0.07842751 -0.03433599 -0.17099388 -0.14748394
000270 97 dc 85 3d ce ed 0f be 0d 78 9a bd 5b 4e 4b 3e
       0.06536215 -0.14055559 -0.07542429 0.19854109
000280 ee 15 f7 bc 3e 24 30 3e a6 5c 6f bd 40 14 07 3d
       -0.030161824 0.17201325 -0.058437966 0.032978296
000290 10 35 ec 3d a1 95 d9 3d a5 1d e9 3d 76 cc 84 3e
       0.11533558 0.106242426 0.11382607 0.2593724
0002a0 c7 cb 4c 3d b7 9f 17 3e d3 aa 24 3d 72 09 a0 3d
       0.049999025 0.1480702 0.040201973 0.078143016
0002b0 a8 28 8f 3e 33 c7 85 bd 6d c0 90 bd 1e 15 79 3d
       0.27960706 -0.06532135 -0.07067952 0.060811155
0002c0 b7 b0 ef bd 64 7e c5 bd a9 aa 82 bd ca c8 db bd
       -0.117036276 -0.09643248 -0.06380207 -0.10731657
0002d0 ed e3 53 bd 92 85 64 bd 46 48 00 3d a4 0f c8 3c
       -0.05173104 -0.055791445 0.031318925 0.02442152
0002e0 c8 70 63 bd 8b f0 9c 3d 8b 5e 32 3c ba a9 a0 bd
       -0.05552748 0.076630674 0.010886799 -0.07844873
0002f0 9a b9 5b bd 79 b2 c9 3b bc 8b e9 3d f5 46 40 bd
       -0.0536438 0.006155309 0.11403605 -0.04694267
000300 5b 8f c2 3d d0 c7 6f 3c 89 9b ee 3c d3 16 a9 bd
       0.09499999 0.014635041 0.0291269 -0.082563065
000310 d6 40 10 be dd be b9 3c d9 70 1a 3d 23 83 8a be
       -0.14087233 0.022674019 0.037705276 -0.27053174
000320 f0 8d 80 be 9f 2e 35 be fb 52 82 be 11 a2 fb be
       -0.2510829 -0.17693566 -0.25453934 -0.49147084
000330 62 85 a0 3b 42 52 34 3e c2 92 80 3d 67 b3 83 3b
       0.004898713 0.17609504 0.06277992 0.004019189
000340 52 0e 54 3d 76 5a 13 3e e4 35 98 bd 6e 8e 09 3e
       0.05177147 0.14389977 -0.07432154 0.13433239
000350 4f 31 cf 3d 04 01 de bd 1f f4 38 bd cc 11 ed bc
       0.10116827 -0.108400375 -0.045154687 -0.02893915
000360 ec 2f 60 ba fd 94 25 3e ec dc 20 3e f8 f8 98 bc
       -0.0008552063 0.16170116 0.15709275 -0.018673405
000370 f4 77 d5 3d 18 d5 ee 3d eb 02 67 bd 54 1f 72 bd
       0.1042327 0.11661738 -0.056399267 -0.059111908
000380 c7 5f 90 b9 21 61 4c bd 07 e0 82 3c 2b 7a 46 3c
       -0.0002753718 -0.049897317 0.015975965 0.012114088
000390 ba 65 44 3e 7b 34 f3 3d 88 74 d9 bd e1 78 4a 3e
       0.1917943 0.11875244 -0.1061793 0.19772674
0003a0 81 3a 41 3e 1d 90 a3 3c 96 ba ec 3a 98 c0 da bd
       0.18869974 0.01996618 0.0018060978 -0.106812656
0003b0 77 41 b7 bd d7 82 1c 3e b4 fb 71 3d 97 56 2a 3d
       -0.08948033 0.15284286 0.059077933 0.041586485
0003c0 bb 4b 4b 3e 3f e0 e0 3d f6 d9 76 bc 1d b2 9f 3d
       0.19853108 0.109802715 -0.015066614 0.07797644
0003d0 7c 94 0a 3e 4f dc 5f 3c 94 e2 0b be c0 d2 26 3d
       0.13533205 0.0136633655 -0.13660651 0.04072833
0003e0 7d 37 aa bd 92 53 22 be 3b 49 a9 bd 21 f0 d7 bd
       -0.08311365 -0.15852192 -0.08265921 -0.10543848
0003f0 d5 14 f0 3d 7c b1 cb bc 42 8c 94 be fb 56 d0 3c
       0.117227234 -0.024864905 -0.29013258 0.0254321

cnn.4.bias f4 [32]
000000 de a9 9f bd 72 20 2b 3c 54 f3 2c be d8 6d a1 3c
       -0.077960715 0.010444747 -0.16889697 0.019705698
000010 a0 63 d9 bd 2c b5 a8 3c b7 5e c2 bd 6c 5a c7 3d
       -0.10614705 0.020594202 -0.09490722 0.097340435
000020 35 4c 31 3c 5d ec d7 3d 6f 33 21 bd 80 49 d1 b5
       0.010821392 0.105431296 -0.03935569 -1.5593105e-06
000030 45 70 ed bd 55 40 2a 3d 05 6b 19 3c 95 73 fa bd
       -0.11593679 0.041565258 0.009363894 -0.12229077
000040 12 40 84 bc 1e 4f 09 3d 96 c2 7e bd 44 cc 7f bd
       -0.016143832 0.033522718 -0.06219729 -0.062450662
000050 bc c4 87 3d 48 b6 32 3c 4d cd 6b 3c 74 93 a5 3b
       0.06629321 0.010907717 0.014392209 0.005052978
000060 bb e8 5a bb 45 e5 fb 3c c1 bc 09 3e 0c 23 7b bb
       -0.0033402878 0.030748973 0.1345091 -0.003832045
000070 3e 6c 07 bd f3 06 e9 bc 94 6c e7 bd 20 ba 56 bd
       -0.033062212 -0.028445696 -0.113000065 -0.052423596

cnn.5.weight f4 [32]
000000 be 92 8d 3f da 0b 6a 3f d0 7a 8a 3f 5b de 8a 3f
       1.1060407 0.91424334 1.0818729 1.0849108
000010 0c 01 8c 3f b8 4c 5a 3f dd 02 6f 3f 4b cc 8c 3f
       1.093782 0.85273314 0.93363744 1.0999845
000020 66 82 53 3f 53 82 86 3f 33 8f 89 3f 1a 8b 80 3f
       0.8262085 1.0508522 1.0746826 1.004245
000030 37 28 6d 3f d4 8e 7b 3f b6 5e 59 3f 6c 85 77 3f
       0.9263949 0.98264813 0.8491014 0.9668796
000040 63 24 80 3f 1c a5 83 3f 97 05 5c 3f b1 83 56 3f
       1.0011104 1.0284762 0.8594603 0.83794695
000050 de 0c 5a 3f 5d 24 84 3f 38 0f 83 3f 9a dc 83 3f
       0.85175884 1.0323597 1.0239019 1.0301697
000060 c5 f7 7f 3f 44 ed 8a 3f 96 4e 8a 3f 7f 49 65 3f
       0.9998744 1.0853658 1.0805233 0.8956527
000070 a6 76 8f 3f 45 ea 81 3f 04 ec 8b 3f 75 e7 51 3f
       1.1208084 1.0149618 1.0931401 0.819938

cnn.5.bias f4 [32]
000000 18 3b ca be 6d 5e 6f be 55 8e d6 be a3 6c 94 be
       -0.3949821 -0.23375864 -0.41905466 -0.28989133
000010 0b 9b 7e be f3 4b 64 be b9 76 81 be 3f 08 99 be
       -0.24863832 -0.22294597 -0.2528589 -0.29889104
000020 be ff 32 be 9f 35 cb bd b7 c4 34 be 63 d5 a1 be
       -0.1748037 -0.09922337 -0.17653166 -0.31608114
000030 93 7f 96 be 57 86 c4 be f2 47 2b be 1e ff a7 be
       -0.29394206 -0.38383743 -0.16726664 -0.32811826
000040 62 7b 34 be f2 93 a2 be 6b 79 5e be 04 3d 5a be
       -0.17625192 -0.31753498 -0.21726005 -0.21312338
000050 84 c4 7d be 44 3d 09 be 75 48 51 be 0a da a9 be
       -0.24781996 -0.13402277 -0.20437796 -0.33174163
000060 c3 26 aa be d4 93 5a be 15 9a 72 be 09 08 1e be
       -0.33232698 -0.21345454 -0.2369159 -0.15432753
000070 b3 01 ea be 13 7d 48 be cf aa 33 be de 16 1a 3e
       -0.4570442 -0.19578962 -0.17545627 0.15047786

cnn.5.running_mean f4 [32]
000000 cb 56 1e c0 e6 43 8b bf 65 a3 a4 bf 20 1f 51 bf
       -2.4740474 -1.0880096 -1.2862364 -0.8168812
000010 df ed b1 bf 49 e8 44 bf 1a ef e3 bf 8e 77 39 bf
       -1.3900717 -0.7691694 -1.7807343 -0.7244805
000020 2e 45 e6 bd be cd 93 be 5c 8a 66 bf 06 27 82 bf
       -0.11243664 -0.28867906 -0.9005487 -1.0168159
000030 36 6c 27 bf df 36 7b bf fc c6 9d bd e3 ad 5b bf
       -0.6539949 -0.981306 -0.07703969 -0.85812205
000040 e5 45 d7 bf 95 34 0b c0 48 02 85 bf 68 25 e6 be
       -1.6818205 -2.1750844 -1.0391321 -0.44950414
000050 d0 33 f8 bf 8a 18 54 bf f7 f1 1f bf 48 2b 2c c0
       -1.9390812 -0.82849944 -0.62478584 -2.6901417
000060 0a 6b ad bc 76 a0 df be 75 98 9a bd b6 52 3b bf
       -0.021169204 -0.4367711 -0.0754861 -0.7317308
000070 71 5d a4 bf ed 8f 3d bf a0 87 90 bf 9e 26 76 3f
       -1.2841016 -0.7404774 -1.129139 0.96152675

cnn.5.running_var f4 [32]
000000 b5 2c 04 41 8f d6 6f 40 08 4d a0 40 19 50 a0 40
       8.260915 3.7474706 5.009403 5.0097775
000010 19 b7 86 40 94 e7 a9 40 ff 96 2e 40 03 35 b7 3f
       4.209851 5.309519 2.727966 1.4313053
000020 8a 3f 0b 40 c2 65 07 40 b8 f6 3e 40 b9 eb 33 40
       2.175753 2.1155858 2.9838085 2.8112624
000030 5d a6 00 40 24 0d 50 40 72 af c7 40 e0 2c 8e 40
       2.010154 3.250802 6.2401667 4.442978
000040 9e f5 9c 40 5a d6 de 40 cf 50 87 40 ed 88 62 40
       4.9049826 6.963666 4.2286143 3.5396073
000050 25 a6 01 41 95 04 06 40 3e 83 ad 3f 34 f2 dc 40
       8.103063 2.0940297 1.3555677 6.904566
000060 54 d9 a3 40 e2 36 f2 3f d7 bc 2b 40 a8 42 3d 40
       5.1202793 1.8922999 2.6834009 2.9571934
000070 a8 96 71 40 bb bf ad 40 b6 b7 3e 40 0a de 89 3f
       3.7748203 5.4296546 2.9799628 1.0770886

cnn.8.weight f4 [48, 32, 3, 3]
000000 bf 94 ea bd 0a 72 ea 3d ee 50 ca 3d 82 c5 32 be
       -0.11454152 0.114475325 0.09878717 -0.17458156
000010 88 de d1 3d 4d 92 0a bc a1 c9 74 3d cc bd 0e 3e
       0.102475226 -0.008457732 0.0597626 0.1393959
000020 5f 39 69 bd 7d ca 64 be 16 6e 1e be 02 71 49 bd
       -0.05693948 -0.22342868 -0.15471682 -0.04918004
000030 45 9f 22 be 09 47 f8 bb ad 47 21 3e 96 6c a5 be
       -0.15881069 -0.0075768274 0.15749998 -0.32309407
000040 f2 30 3c 3d ae ff 7e 3e d7 f6 61 3e 42 c4 05 3e
       0.045945115 0.24902222 0.22066818 0.13063148
000050 a9 ef 60 3e 4d 28 8a 3d eb fb 44 be 77 65 00 3e
       0.21966423 0.06745968 -0.19236724 0.12538706
000060 af e2 35 bd 56 14 20 be 34 52 26 3e fd b7 28 3d
       -0.044405635 -0.15632758 0.16242296 0.04119109
000070 ed 3d e2 3b 32 6c ed bd 04 e3 45 bc bc dd f7 bd
       0.006904355 -0.11592902 -0.0120780505 -0.12102839
000080 7f f1 9b 3c ab f6 03 3e 27 5c b6 3d 9c de b8 3c
       0.019036053 0.12887065 0.089042954 0.022567086
000090 84 96 88 3d b4 37 d9 bd 54 c8 d6 3d 79 41 00 be
       0.066693336 -0.10606328 0.10487428 -0.12524976
0000a0 47 f2 f3 bc 0d d0 21 3e 03 f7 09 bc c6 b8 3b 3e
       -0.029778613 0.15802021 -0.008420709 0.18332204
0000b0 ec 38 91 3e cf 45 15 be 52 16 2c bd 0a 17 0a 3e
       0.2836374 -0.14577411 -0.042013474 0.13485351
0000c0 c7 95 fb 3d 56 4a d8 3c 93 96 6f bd ba 2a 29 3e
       0.12284427 0.026402634 -0.05849321 0.16520205
0000d0 ad 56 af be 46 7e 36 be a1 b2 10 3d 57 81 e5 3d
       -0.34245816 -0.17821607 0.035326604 0.1120631
0000e0 00 92 16 3d e5 49 83 3d d7 f1 14 3e df e9 59 bd
       0.03676033 0.06410579 0.1454538 -0.053201552
0000f0 52 8c a6 bc 57 60 2f 3d 4c ec 08 be 40 fc 8a bd
       -0.020330582 0.042816486 -0.1337139 -0.06786394
000100 46 3d f1 3c fa 4f af bd 8f e4 1f be b8 7a 7a be
       0.029448163 -0.08560176 -0.15614532 -0.24460876
000110 2d 29 df bd c7 1c b5 bd 24 6a 04 be 9c ac b6 bd
       -0.108965255 -0.088433795 -0.12931114 -0.089196414
000120 8c ba 16 3d a7 23 25 3d 02 a8 ed bd d0 34 b1 3d
       0.036799 0.040317204 -0.116043106 0.08652651
000130 74 06 c7 bc 1e ad 24 be 82 9b 51 bd ae 0d 12 be
       -0.02429507 -0.16081664 -0.051173694 -0.14263031
000140 c5 ca 9e be c7 2d 2d 3d 94 6e 17 3e 5f 62 2e be
       -0.31014076 0.042279985 0.14788276 -0.17029713
000150 fa 63 06 be cb 3d 02 bd c6 9d be be d0 d0 ad 3d
       -0.13124076 -0.03179721 -0.37229747 0.084870934
000160 41 47 d9 bb 29 d8 6b bd a8 b6 bc 3d 5e 31 84 bc
       -0.0066308086 -0.057579193 0.092145264 -0.016136821
000170 93 0b 7e 3d 71 2c 36 bd a3 18 87 bd 3a 91 ce bd
       0.062022757 -0.044475976 -0.06596496 -0.100862935
000180 03 6c 1e be 80 53 10 be df f5 a1 bd 67 af 09 3d
       -0.1547089 -0.14094353 -0.07908224 0.033614542
000190 f2 42 2a be 11 63 da bd 92 6f 1d bd c4 e5 36 3d
       -0.166271 -0.10663427 -0.03843648 0.044652715
0001a0 1a d5 8d 3e 64 80 f2 bd cc ff 98 bd 03 3d 5a 3d
       0.27701646 -0.11840895 -0.074706644 0.05328084
0001b0 23 ca f4 3c ed a8 f7 bd 7a 41 17 be 1c d2 b6 3d
       0.029881543 -0.12092767 -0.14771071 0.08926794
0001c0 7c 0d 43 3d 59 26 d3 bc 25 67 05 be cd 7c 5d be
       0.04762028 -0.025775122 -0.13027628 -0.21629639
0001d0 a2 b1 a4 3d 8d 24 bb bd 34 de ab bd 1b bc 66 be
       0.08041693 -0.09137831 -0.08391991 -0.22532694
0001e0 58 8d d6 bd 29 90 e4 bd a3 1b 45 be b3 38 22 bd
       -0.10476178 -0.11160309 -0.19248824 -0.039604854
0001f0 c9 5a 15 bc 01 49 eb bd 4f 85 87 bc ec f2 4d 3d
       -0.009115883 -0.11488534 -0.016543059 0.050280496
000200 40 1b e0 bd 67 1c 00 be 77 a1 54 bd 9b 2e 85 bc
       -0.109426975 -0.12510835 -0.051911797 -0.016257575
000210 72 d9 77 3d 6e f2 93 3d 98 da 6f 3d 38 0f 12 3d
       0.060510106 0.07223974 0.058558077 0.035659045
000220 4c 85 da 3d 41 ed ad 3d 4a 53 22 3d 15 8d 5b 3d
       0.106699556 0.08492518 0.039630212 0.053601343
000230 61 5e da bd b8 a1 84 bc 30 7d 86 bc e6 b6 42 bd
       -0.106625326 -0.016190395 -0.016417116 -0.047537707
000240 67 fc fb bd fc c7 0c be 46 41 13 be e1 7c 03 3e
       -0.12304001 -0.13748163 -0.14380369 0.12840606
000250 30 c7 8c bd be 64 71 be e7 90 f7 3c 43 ec 92 3d
       -0.068739295 -0.23573586 0.030220462 0.071739696
000260 cc 77 88 3e 8b e1 e1 bd 67 d7 24 3e b5 f2 37 bd
       0.26653898 -0.11029347 0.16097794 -0.044909198
000270 e7 b9 11 be 4e 01 9e bc 44 0c e9 3d 27 4a 9a bc
       -0.14231072 -0.019287731 0.113792926 -0.018834187
000280 83 fc 34 3e ac 60 94 3d a5 28 a5 3d 01 42 1b bd
       0.1767445 0.07245001 0.08064393 -0.037904743
000290 3b 19 2f 3d a0 51 f9 bc 0f 9b 1e be 93 df c5 bd
       0.04274867 -0.03043443 -0.15488838 -0.09661784
0002a0 77 15 57 bd e2 d1 b8 ba e9 9c 09 3d 1a 76 f7 3a
       -0.052510705 -0.0014100636 0.033596907 0.0018879802
0002b0 e5 35 7e bc 3b 03 f9 bd 9c ba 46 be d9 15 09 3e
       -0.015515779 -0.12158819 -0.19407123 0.1338724
0002c0 17 b5 07 be 8a 39 c3 3b 9b 8a e7 3d 6a 17 09 bc
       -0.13252674 0.005957787 0.11305734 -0.008367399
0002d0 d1 61 64 bd 3f 19 22 3d 02 6c a4 3d d7 ab 6f bd
       -0.055757347 0.039574858 0.08028413 -0.05851349
0002e0 57 7c aa bd dd 50 24 be 2c 3c 9a 3c 5b 0e 06 3d
       -0.08324497 -0.16046472 0.01882752 0.032728534
0002f0 1a 44 2f 3d 0b 7b 8c 3d b6 e7 e3 3d 1e e5 7a bd
       0.042789556 0.06859406 0.1112818 -0.06125366
000300 ff 9b e9 bd bf 08 4b be ab bf 9c bc 76 6d 2d be
       -0.11406707 -0.19827555 -0.019134363 -0.16936287
000310 77 97 96 bc 6f c2 1e 3e 5c 82 27 be 78 9d 70 be
       -0.018382771 0.15503858 -0.16358322 -0.2349757
000320 0e 77 58 be 4a 09 bd 3d d8 a1 d5 3d 0b b1 4c be
       -0.21139166 0.092302874 0.1043126 -0.19989412
000330 e5 a0 97 bd 21 99 1e bd 4e a4 5a be 04 0e ac 3d
       -0.07403735 -0.038720254 -0.2135174 0.08401111
000340 d0 e4 bf 3d bb 11 e0 3c 82 ca b4 3d 82 2a b3 3d
       0.093698144 0.027352205 0.08827688 0.08748342
000350 31 2d 83 bd 5f db 4d 3d d5 7b 4c be ba b0 aa 3c
       -0.06405104 0.050258037 -0.19969113 0.020836223
000360 20 9b 50 bd c4 42 05 3e 2b 0d 74 3d 62 ec 49 be
       -0.05092919 0.1301375 0.05958287 -0.19719079
000370 cc ff f5 bd 0c 88 f5 3c 84 a9 b2 be 1e 51 77 bd
       -0.1201168 0.029972099 -0.34894955 -0.060380094
000380 36 6b 6e bc 35 c4 86 bc 76 9e 8a bd 16 fa 51 bd
       -0.014551928 -0.01645098 -0.06768505 -0.05126389
000390 b4 4b 01 be 9e 36 ce bb 2f 17 bd 3d 38 c8 3a be
       -0.12626535 -0.006293132 0.092329375 -0.1824044
0003a0 f0 59 18 bd 61 10 a7 bd 72 45 94 3c 2c 34 1a be
       -0.037195146 -0.08157421 0.01809952 -0.15058964
0003b0 d7 99 c6 3d ac 77 4a bd 50 73 db bd 17 1e 3b be
       0.09697311 -0.049430534 -0.107153535 -0.18273197
0003c0 7a 9a 83 be c6 cb 4e be cc ae ef bd ec c7 10 be
       -0.25703794 -0.20194921 -0.11703262 -0.14138764
0003d0 6a 12 9c 3c 89 3a 2d be 1b f7 cd bc 98 ef bb 3d
       0.01905175 -0.1691686 -0.025142243 0.09176558
0003e0 30 5b e1 bd 58 99 77 bd 3f c2 19 3d 32 2b b0 bd
       -0.11003721 -0.060448974 0.037538763 -0.08601989
0003f0 10 64 67 3c 86 0a ef bd 0f d3 16 be 81 6e 00 3e
       0.014122978 -0.11671929 -0.1472895 0.12542154

cnn.8.bias f4 [48]
000000 e6 5e 37 3d ab 0a 28 bc c1 e5 c5 bd a3 8e 19 bd
       0.044768237 -0.01025645 -0.09662963 -0.037489545
000010 7f 07 c2 3b ae 96 00 3d 55 80 fa bc e8 4f d2 bd
       0.0059213038 0.0313937 -0.030578772 -0.10269147
000020 b9 60 dc 3c ba 5d 43 3b e0 c1 09 3e a2 57 70 3d
       0.02690159 0.0029810504 0.13452864 0.058677323
000030 c8 6a 12 bd 1c e9 1e bd f5 56 8c 3d dc 26 ef 3c
       -0.035746366 -0.03879653 0.06852523 0.029193334
000040 e6 76 4a 3d 8a ee 76 bc 99 5a a2 3d ae 28 9b 3d
       0.049429797 -0.015071521 0.079274364 0.075761184
000050 c7 9c 17 3d 23 67 1c bc e2 37 7c 3d 67 58 56 3d
       0.03701475 -0.009546074 0.06157673 0.0523304
000060 65 54 ba bc 6e 67 0d bd 05 f3 56 3c 2e d9 2a bd
       -0.02274532 -0.034522466 0.013119464 -0.041711025
000070 a6 04 38 bd 8e d8 06 3c 73 94 9f bc ac ca fc bc
       -0.044926308 0.008230342 -0.019479966 -0.03085836
000080 b3 66 9f bd 17 02 45 bc 46 c0 88 3d 80 73 96 bb
       -0.0778326 -0.012024424 0.06677298 -0.0045914054
000090 47 c7 87 3d 9b f1 c4 3c b0 df 84 bd 70 a7 7c 3d
       0.06629806 0.024040988 -0.064879775 0.06168312
0000a0 9e 5e fa 3c c8 f0 31 3c 87 31 7e 3d 63 c8 e8 3c
       0.030562695 0.010860629 0.06205895 0.028415864
0000b0 15 e5 6f 3d 5a a6 05 be a2 2e 74 bc 17 45 0b bd
       0.05856808 -0.1305174 -0.014903696 -0.034001436

cnn.9.weight f4 [48]
000000 ff dc 67 3f 3c e6 5f 3f 44 20 6c 3f 34 b6 56 3f
       0.9057159 0.87460685 0.92236733 0.8387177
000010 3d 29 82 3f b3 33 65 3f 2a 8b 6d 3f 46 fc 53 3f
       1.0168835 0.8953201 0.9279047 0.82806814
000020 26 a6 5f 3f 6c fa 54 3f 3e d2 5c 3f 18 41 52 3f
       0.873629 0.83194613 0.86258304 0.82130575
000030 3c fc 75 3f 86 80 4f 3f 28 3e 53 3f 45 0b 63 3f
       0.96088004 0.81055486 0.8251672 0.8868907
000040 f1 cc 64 3f 0d 90 53 3f 2a 93 65 3f e5 dc 47 3f
       0.89375216 0.8264168 0.8967768 0.78071433
000050 90 06 67 3f 6e a1 6e 3f 60 4e 58 3f 71 40 89 3f
       0.9024439 0.9321507 0.8449459 1.0722791
000060 ca 8d 53 3f 3d f7 67 3f c5 ba 86 3f 0c 95 6b 3f
       0.8263823 0.9061163 1.0525748 0.920243
000070 61 69 87 3f 7f a3 6c 3f 22 76 5b 3f be 6a 73 3f
       1.0579034 0.92436975 0.8572713 0.9508475
000080 e1 60 59 3f 16 4d 60 3f 0d f1 5f 3f cb fc 5d 3f
       0.8491345 0.87617624 0.8747719 0.86713856
000090 54 41 83 3f e2 a3 58 3f 68 63 53 3f 1b 9b 4f 3f
       1.0254312 0.84625065 0.82573557 0.8109605
0000a0 c0 22 7e 3f 9e 06 83 3f 50 f4 6b 3f 8c 4d 77 3f
       0.99271774 1.0236394 0.92169666 0.966027
0000b0 c8 ce 6a 3f ef 57 5e 3f 8a 16 6d 3f 1b 49 75 3f
       0.91721773 0.86852926 0.92612517 0.95814675

cnn.9.bias f4 [48]
000000 ac 71 fa be 6f 30 0b bf 16 b9 dc be 63 be a6 be
       -0.4891485 -0.5437078 -0.4310996 -0.3256713
000010 2d 02 0b bf ef 67 81 be f6 fd fa be 01 89 03 bf
       -0.54300195 -0.25274608 -0.49021882 -0.51380926
000020 2d 40 d2 be 4e ae d5 be 65 4a c3 be a8 1d c9 be
       -0.41064587 -0.41734546 -0.38142696 -0.39280438
000030 87 0b 07 bf 1b e9 b6 be 3a 94 f7 be e6 28 04 bf
       -0.52751964 -0.3572472 -0.48355275 -0.51624906
000040 17 2f a0 be 31 c9 ce be f2 57 0b bf c7 7a 77 be
       -0.31285927 -0.40387872 -0.5443107 -0.2416793
000050 55 89 9e be 56 b9 f0 be 09 e4 d7 be 07 3b 22 bf
       -0.3096415 -0.470164 -0.42166165 -0.6337132
000060 95 c4 e7 be fc f6 1a bf 91 04 1b bf 0a 04 a6 be
       -0.45267168 -0.6053312 -0.6055384 -0.32424957
000070 5e 5b 0c bf 23 94 01 bf 4c 36 ff be 8a ee ef be
       -0.54826915 -0.50616664 -0.49846113 -0.46861678
000080 f1 91 02 bf 5d 5e 04 bf 32 e1 d2 be 5c 4f b8 be
       -0.5100394 -0.51706487 -0.41187435 -0.35998046
000090 cb 22 0c bf 5a f8 e3 be 0e c6 ff be f1 f8 07 bf
       -0.5474059 -0.44525415 -0.4995579 -0.5311423
0000a0 15 a1 10 bf 8d 25 e1 be 2a 9d 16 bf 8e 4b fc be
       -0.5649579 -0.4397396 -0.58833563 -0.49276394
0000b0 97 44 de be e1 2f 0d bf 25 27 da be d6 e0 c4 be
       -0.43411705 -0.5515118 -0.4260799 -0.38452786

cnn.9.running_mean f4 [48]
000000 e6 55 0e c0 1d f6 a3 bf 93 71 da bf 61 e0 b9 bf
       -2.2239928 -1.2809483 -1.706591 -1.45216
000010 16 b3 e6 bf 8c dc c5 bf 61 e0 a7 bf ac 2e e6 bf
       -1.8023403 -1.545793 -1.311535 -1.7982993
000020 fd 93 12 bf 6e 69 f9 bf d2 fc 03 c0 75 87 cf bf
       -0.5725706 -1.94853 -2.062306 -1.6213213
000030 a5 ee 8b bf 78 e1 c1 bf 91 b3 a6 bf 28 3d 9e bf
       -1.0932204 -1.5146933 -1.3023549 -1.2362413
000040 f8 80 22 bf b0 10 03 c0 f1 07 f5 bf 38 14 88 bd
       -0.6347804 -2.0478935 -1.9143049 -0.066444814
000050 86 9e 0b bc 07 72 b5 bf 86 e3 a9 bf 55 ba b3 bf
       -0.008521682 -1.4175423 -1.327256 -1.4041239
000060 dd f5 07 c0 f2 d7 ad bf e8 d7 c4 bf 87 79 98 bf
       -2.1243813 -1.3581526 -1.5378389 -1.1912087
000070 e5 19 e3 bf bd a4 a1 bf 32 89 0e c0 8e d5 01 c0
       -1.7742277 -1.2628399 -2.2271237 -2.0286593
000080 71 cc a1 bf e0 0c b0 bf c0 ce 91 bf 96 fd f9 bf
       -1.2640516 -1.3753929 -1.139122 -1.9530513
000090 41 50 f8 bf 48 0b a7 bf 30 c7 e5 bf b9 7e bc bf
       -1.9399492 -1.3050318 -1.7951412 -1.4726173
0000a0 13 b4 e5 bf 0a 6a 07 c0 40 7c 07 c0 5c f1 c0 bf
       -1.7945579 -2.115847 -2.1169586 -1.5073657
0000b0 fd 57 fc bf ae 5a d0 bf de 2f a9 bf 67 29 b3 bf
       -1.9714352 -1.6277673 -1.3217733 -1.399701

cnn.9.running_var f4 [48]
000000 eb bf 2e 40 5d 6c 0d 40 95 f6 0e 40 2e 50 09 40
       2.7304637 2.209739 2.2338002 2.1455188
000010 dd a5 35 40 f0 c1 4d 40 4c 31 2b 40 98 1c 31 40
       2.8382485 3.214962 2.6748838 2.7673702
000020 9c 84 25 40 04 3f dd 3f ae 7a 1d 40 7c a8 12 40
       2.5862188 1.7284856 2.4606128 2.2915335
000030 b7 d2 36 40 46 ab 09 40 cb 24 1a 40 8b b8 1c 40
       2.856611 2.1510787 2.4084957 2.4487636
000040 cb f3 4d 40 b9 62 2e 40 60 c8 25 40 bc d3 2f 40
       3.218005 2.7247756 2.590355 2.7472982
000050 de bd 3b 40 76 53 0b 40 41 26 35 40 9a c2 4f 40
       2.9334636 2.176969 2.8304598 3.2462525
000060 a1 bf 0f 40 f1 ce 14 40 b1 50 4f 40 00 25 19 40
       2.246071 2.3251307 3.2393 2.3928833
000070 a8 af 42 40 1a db e9 3f e1 e2 18 40 56 54 dc 3f
       3.0419712 1.826999 2.3888476 1.7213237
000080 ba e5 08 40 b0 d5 36 40 41 47 db 3f 01 58 c7 3f
       2.1390214 2.8567924 1.713112 1.5573732
000090 f8 fb 2f 40 fc 7f 11 40 3a ba fa 3f 2a 08 2f 40
       2.749754 2.2734365 1.9588082 2.7348733
0000a0 03 c9 23 40 b8 9b 35 40 a2 93 24 40 ea 61 2d 40
       2.5591438 2.8376293 2.5715108 2.7091012
0000b0 05 c0 12 40 e2 38 21 40 5e f0 43 40 10 6a 1d 40
       2.29297 2.5190969 3.0615458 2.4595985

cnn.12.weight f4 [64, 48, 3, 3]
000000 9c 50 24 3e de 47 04 3e 5c 5a 23 be 4f 14 0a bb
       0.16046375 0.1291804 -0.15952438 -0.0021069234
000010 ae b4 7c bd c4 99 38 bd d9 0c b7 3d 5f a2 06 be
       -0.061695747 -0.045068517 0.08937997 -0.13147877
000020 51 f1 ea 3a 2f b8 7f 3e 1c 3b 3a 3e e8 69 62 3d
       0.0017924701 0.24972604 0.18186611 0.05527678
000030 d5 88 84 be 0d 1c ff bd 01 c2 4c bd ff 6a d6 be
       -0.25885645 -0.12456522 -0.049989704 -0.41878507
000040 54 32 4d be ba 80 57 3d 6e 7c 9f bd e2 8e ab be
       -0.2003873 0.052612998 -0.07787405 -0.33507448
000050 fc 2c 8c be 9d cd a8 3e 11 27 8b 3d 2e 5e 74 bd
       -0.2737807 0.3296937 0.06794561 -0.05966013
000060 ee f0 43 be ff 62 37 bd 46 98 79 bc 18 b1 fb 3d
       -0.19134876 -0.044772144 -0.015234059 0.12289637
000070 a5 95 9a 3d 3a 35 62 3d 0a f2 d2 bd 84 0f 37 3d
       0.07548074 0.055226542 -0.103000715 0.04469253
000080 71 e1 bb bd 9b 81 c5 3d 80 03 22 3c 85 65 4b bc
       -0.09173859 0.09643861 0.00988853 -0.012414341
000090 64 0a d4 bc 92 70 c0 bd 8c ee d2 3c 81 39 43 be
       -0.02588386 -0.09396471 0.025748514 -0.19064905
0000a0 1e bb e7 bd 2d f1 a5 3e 18 e3 59 be 9b a7 a2 bd
       -0.11314987 0.32410565 -0.21278036 -0.079421245
0000b0 93 a9 09 3e 34 15 05 3e 56 67 1d bd 6f a2 32 bd
       0.13443594 0.1299637 -0.038428627 -0.04361194
0000c0 57 c1 6b be c2 bd 5a be f4 a0 ff 3c a1 54 5d bd
       -0.23022972 -0.2136145 0.031204678 -0.054035787
0000d0 59 20 a1 bd df 18 02 be 87 75 17 3c 5a 4e f3 bd
       -0.07867498 -0.127048 0.009244329 -0.11880179
0000e0 f1 48 20 be ff d7 45 3d b8 26 12 be e0 af 77 3d
       -0.15652825 0.048301693 -0.14272583 0.06047046
0000f0 db ba 17 be 93 5f df bd e0 7f a2 3a c5 28 7c bc
       -0.14817373 -0.10906901 0.0012397729 -0.01539058
000100 b3 1c eb bd 01 98 1e be 81 4e 36 be e6 bc f1 bd
       -0.11480083 -0.15487672 -0.17803384 -0.11803608
000110 e0 d8 b9 3b ac 0b 4c 3d f6 81 d9 bb 95 3d 01 3e
       0.0056716055 0.04981582 -0.006637807 0.12621148
000120 1a 25 d8 3b 47 e0 12 3d 4c d9 c3 bd 5b a6 0c 3d
       0.0065962197 0.03585842 -0.095629305 0.034338336
000130 56 0e 34 3e b3 d9 22 3d 74 8a 01 3d 62 72 f0 bd
       0.17583594 0.039758395 0.03162618 -0.11740567
000140 7e 68 af bd 8b bd d5 3c db 77 0e 3e 69 ef 10 3e
       -0.08564852 0.026091358 0.13912909 0.14153828
000150 2a 4f d4 bc 21 69 dd bd b2 ea 41 be 6b 0f 01 3d
       -0.025916655 -0.108110674 -0.18937185 0.031508844
000160 33 d3 01 bc ef b8 a2 3d 2f 44 50 3d 83 71 33 bb
       -0.007923889 0.079454295 0.050846275 -0.002738089
000170 a1 47 9c be 77 c0 e8 3d 3d ff 4b 3e 86 e6 14 3e
       -0.305234 0.11364835 0.19921584 0.14541063
000180 54 38 ed bd 78 4e 96 bd d2 f7 30 3e 83 26 34 3d
       -0.11583009 -0.073391855 0.17282036 0.04398204
000190 cd f3 2c bd 81 57 38 bd a0 5a 70 3b b3 40 56 bd
       -0.042224694 -0.045005325 0.003667511 -0.052307796
0001a0 da 98 bd bd 40 80 86 bd 33 3a 48 bd f1 55 4a be
       -0.0925767 -0.065674305 -0.048883628 -0.19759347
0001b0 c1 01 2f be b6 8d 9f bc c2 f1 ad 3d 69 19 fe bc
       -0.17090513 -0.019476753 0.08493377 -0.031017976
0001c0 a3 52 2a be da dd 0e be 1e 77 99 3c ed 7a 09 3d
       -0.16633086 -0.13951817 0.018733557 0.033564497
0001d0 1f 3b 0c 3e b2 7c 60 bd cb 1b ae bd a9 b0 d4 3d
       0.13694428 -0.05480642 -0.08501395 0.10385258
0001e0 06 63 8d 3d bb cc c5 3c 3d 0b 64 3e 09 1e f6 3d
       0.06903653 0.024145475 0.22269912 0.120174475
0001f0 c5 7e 5a 3b 35 38 8a bb 33 f3 49 be b4 0e 35 3d
       0.003333972 -0.004218126 -0.1972168 0.044203475
000200 90 01 8d 3e 8f e2 72 bd 40 ec b1 bc 96 6e 22 3e
       0.27540255 -0.059298094 -0.021719098 0.15862498
000210 4d f0 50 be 3e cd 86 bd 35 26 28 be b4 a1 54 3a
       -0.20404167 -0.065821156 -0.16420825 0.0008111254
000220 ea d2 79 bc f8 6e 08 3d 11 21 83 be 17 0b f0 bc
       -0.01524804 0.033308953 -0.25611165 -0.029302163
000230 9d 3e 15 3e 1e a7 ad 3c 0e 53 d8 3d fd 9a a1 3d
       0.14574666 0.021197852 0.105627164 0.0789089
000240 43 1f 66 3d 32 2d 95 3d 42 30 ff b9 d7 ef 71 3d
       0.056182157 0.07284011 -0.00048673345 0.05906662
000250 31 31 6c bd 93 be 39 3e 9f 48 5d 3e d2 e1 f6 3c
       -0.0576641 0.18139105 0.21609734 0.030136976
000260 40 b9 b8 bc da 41 37 bd c3 85 f1 bd 00 8d 8e 3d
       -0.022549272 -0.044740535 -0.11793091 0.06960487
000270 ed d5 9e be 04 d1 18 3c 5c 00 0a 3e 9d 75 a9 3d
       -0.31022587 0.009327177 0.134767 0.08274386
000280 e9 7a d9 3d 9a ba ea 3d e9 70 2f be 62 0c ae be
       0.106191464 0.11461373 -0.17132916 -0.33993822
000290 df 79 a5 bd a0 a9 e4 bc 1c 39 23 be 6d bd 02 be
       -0.08079886 -0.027912915 -0.15939754 -0.12767573
0002a0 71 35 ca bd 3b 63 e4 3c b0 04 19 3d 90 7a b9 3d
       -0.098734744 0.027879348 0.037357986 0.0905658
0002b0 3b 9d b5 bc 0e 59 00 3e ce da 19 3c c3 77 15 bd
       -0.0221697 0.12533972 0.009390546 -0.036491167
0002c0 f0 4b 9b be 40 62 d2 3d 2c 6f 56 3e f9 57 15 3e
       -0.30331373 0.10272646 0.20940846 0.1458434
0002d0 1e 18 87 be 9e 5a c5 3d 91 61 78 3c 81 74 22 be
       -0.26385587 0.096364245 0.01515998 -0.15864755
0002e0 41 ce 3b be 3b b7 d1 bd ab 4f 60 3c 02 18 6f 3c
       -0.18340398 -0.102400266 0.013690869 0.014593126
0002f0 70 78 c2 3d b8 5e 7e bd 90 8c 76 bd a5 04 92 be
       0.09495628 -0.06210205 -0.060192645 -0.28519168
000300 e5 b6 55 bb 0d 4a b8 bd b4 b7 07 bc 7f 77 28 3e
       -0.0032610234 -0.08998499 -0.008283544 0.16451834
000310 58 0a 2d 3e 9e ab a1 bd 2d 04 dc 3c 6b 2e 58 bd
       0.16898477 -0.078940615 0.02685746 -0.052778643
000320 56 a3 9c be 7e 31 35 bd e6 fd b7 ba 9a 80 95 be
       -0.30593365 -0.044236653 -0.001403746 -0.29199678
000330 be c3 80 3e 00 b2 8e 3d f4 5b f6 3d b1 47 1b be
       0.2514934 0.069675446 0.120292574 -0.15164067
000340 07 3b 3f be 4b df 9c bd 51 93 24 be 93 85 f8 bd
       -0.18674861 -0.07659777 -0.16071822 -0.12134852
000350 7a b6 7c 3e 7c e4 71 bc 2a 56 20 be a4 31 d8 bd
       0.24678984 -0.014763948 -0.15657869 -0.10556343
000360 2a e6 98 bc 21 b8 31 3d a8 73 f8 bc 8b b8 d4 bc
       -0.018664438 0.04338849 -0.030328587 -0.025966903
000370 c1 6b 4c 3c 2c 82 94 3c ad df 90 3c 8f 3b 60 3d
       0.012476862 0.018128477 0.017684782 0.0547443
000380 55 95 03 3e 79 61 11 3d d7 d7 74 bd 7d bc 7a be
       0.12849934 0.035493348 -0.059776153 -0.24485965
000390 af 2b 2f be af d3 3a be 6a 23 23 bc c2 15 2c bd
       -0.17106508 -0.18244813 -0.009957174 -0.042012937
0003a0 28 b0 05 be 34 4e 55 3d b0 5b 9f bd 82 65 ce bd
       -0.1305548 0.052076533 -0.0778116 -0.10077955
0003b0 96 e5 4c be cc 64 21 bd d8 90 0d be 0c d1 2d 3d
       -0.20009455 -0.039402768 -0.13824785 0.04243569
0003c0 43 8d 69 be bf f6 dc 3a ff a5 a8 3d 6d 7c 67 bd
       -0.22807793 0.0016858204 0.08234786 -0.056515146
0003d0 82 5b b5 bc 5d f1 c3 3c be ce 49 bd 75 e6 0e 3e
       -0.02213836 0.023918802 -0.04926943 0.139551
0003e0 68 9f 33 be 0b 88 d4 3d dd 76 2b 3e 5f 5a 83 3b
       -0.17541277 0.10377511 0.16744561 0.004008576
0003f0 82 d8 6c 3d 8c b1 28 be 37 6f a2 3d 65 5d 2a 3d
       0.057823665 -0.16473979 0.07931369 0.041592974

cnn.12.bias f4 [64]
000000 69 1c 6d 3c d4 70 bc 3d 7f 5b 35 bd 4f 9b 8f 3d
       0.014472106 0.09201208 -0.04427671 0.07012045
000010 8d 9b 59 bb f5 ea da ba 77 14 4b 3d 5b 0e f2 3c
       -0.0033204288 -0.0016702103 0.049580064 0.02954786
000020 9a 9a 58 bc b4 74 98 bc 68 b0 50 3c 9d 24 8c 3d
       -0.013220454 -0.018610336 0.012737371 0.06842921
000030 9e 61 c0 bd 8e 6c fa bb b1 e8 61 bc ce 8e 1a 3d
       -0.09393619 -0.0076423353 -0.013788388 0.037733845
000040 e7 6c 06 3d 7a f3 e3 3c 73 6f c5 3d 39 60 5f bc
       0.0328187 0.02782606 0.09640398 -0.013633781
000050 8a 10 16 bc 61 75 f0 bc f2 0e 3c 3c 2e ad 0f 3d
       -0.009159217 -0.029352846 0.011478173 0.035077266
000060 72 8b 83 bd 4f af 69 bd be 78 08 3e 6b b2 78 bc
       -0.064230815 -0.057051953 0.1332731 -0.015179257
000070 e8 23 1a 3d 0e d3 76 3c aa b6 1b bd 25 32 98 3d
       0.0376319 0.015064968 -0.038016 0.07431439
000080 b7 04 8e 3d 70 df df 3d ea a3 e9 3c dd 5f c9 3d
       0.06934493 0.10931289 0.028520543 0.098327376
000090 cb 7d 6a 3d 15 35 23 bc a8 6b 2a bd 86 dd 22 bc
       0.05724887 -0.009961386 -0.041606575 -0.009940511
0000a0 21 68 67 bc 01 57 3f 3d ad 60 a5 bd 41 37 a8 3d
       -0.014123947 0.046713833 -0.0807508 0.08213664
0000b0 b7 2b 27 3c bd 20 a7 3c cc 90 43 bd 3b 2b 05 bc
       0.0102032935 0.020401353 -0.04774551 -0.008127983
0000c0 df d5 96 3c cf 97 30 bd c8 b8 51 bd 40 ee 0d bd
       0.018412529 -0.043113526 -0.05120161 -0.03465104
0000d0 48 cc 91 bc 41 c2 08 bc bc b8 86 bd d1 5a a6 3b
       -0.017797604 -0.008347095 -0.06578204 0.005076744
0000e0 9b b1 e2 bc 97 e8 34 bd ec 85 d3 bd 81 27 20 bd
       -0.02767258 -0.044167127 -0.10328278 -0.039100174
0000f0 85 13 24 bd fd cc 50 3d 90 07 19 bd 75 f5 a3 3c
       -0.040057678 0.050976742 -0.037360728 0.020014504

cnn.13.weight f4 [64]
000000 8f 7f 8f 3f d1 86 8b 3f c3 04 90 3f 7d 0a 9a 3f
       1.1210803 1.0900518 1.1251453 1.2034451
000010 2b d4 89 3f 96 3b 90 3f d5 9d 83 3f f1 fa 8e 3f
       1.0767874 1.1268184 1.0282542 1.1170331
000020 3d 8e 87 3f 05 ba 84 3f d5 58 85 3f ac 09 80 3f
       1.0590283 1.0369269 1.0417734 1.0002952
000030 7f 7f 87 3f 35 ad a4 3f d7 1c 8e 3f 97 bf 81 3f
       1.0585784 1.2865359 1.1102551 1.0136594
000040 90 64 a3 3f 35 45 8b 3f fd a4 86 3f 65 cf 8c 3f
       1.2765064 1.0880495 1.05191 1.1000792
000050 8d 4a 8b 3f b6 5d 92 3f 81 c8 77 3f 28 26 99 3f
       1.0882126 1.1434848 0.9679032 1.1964769
000060 e4 bd 84 3f 21 1a 85 3f 97 ca 96 3f 1c 0f 91 3f
       1.037045 1.0398599 1.1780576 1.1332736
000070 c6 b1 83 3f d0 dc 82 3f 93 86 90 3f 14 1c 96 3f
       1.0288627 1.0223637 1.1291069 1.1727319
000080 5d 60 88 3f 63 47 8d 3f 71 2a 98 3f d4 3b 95 3f
       1.0654408 1.103741 1.1887952 1.1658883
000090 93 72 8d 3f 91 6b 8a 3f 90 31 94 3f ae 5a 88 3f
       1.105059 1.0814077 1.1577625 1.0652673
0000a0 bc 98 90 3f 2e 70 94 3f 5d 3f 90 3f ac 65 96 3f
       1.1296611 1.1596735 1.1269337 1.1749778
0000b0 fb d2 83 3f 3c 1d 8c 3f 03 de 95 3f 96 9d 91 3f
       1.0298761 1.0946422 1.1708378 1.1376216
0000c0 a4 4f 82 3f 2b 1e 92 3f ec 7e 80 3f 2b d5 99 3f
       1.0180554 1.1415457 1.0038733 1.2018179
0000d0 dc d4 9c 3f 5d 54 86 3f 19 7e 8e 3f 5b cd 82 3f
       1.225246 1.0494496 1.1132232 1.021892
0000e0 c8 81 81 3f 4e 62 8f 3f 0f b9 81 3f d6 5e 96 3f
       1.0117731 1.1201875 1.01346 1.1747692
0000f0 8b f4 80 3f 20 f6 92 3f 78 cb 92 3f d5 fb 8b 3f
       1.0074629 1.1481361 1.1468344 1.0936228

cnn.13.bias f4 [64]
000000 2f 2a 0a be 5d fb 99 bd 60 1d 73 be aa 56 8f be
       -0.13492654 -0.07518647 -0.23741674 -0.27995807
000010 17 d2 ba bd 7a cb f8 bd 36 10 1c be 7a 38 81 bd
       -0.09122103 -0.12148185 -0.15240559 -0.063096
000020 0a e4 87 bd 1b b4 84 be c8 26 4a be 4c 4d 17 be
       -0.06635292 -0.2591866 -0.19741356 -0.1477558
000030 9a 37 25 be b1 ba 99 be b2 77 64 be 99 92 44 be
       -0.16134492 -0.30025247 -0.22311285 -0.19196548
000040 1a 37 5a bd e5 68 db bc 56 a1 57 be 51 19 92 be
       -0.053275205 -0.026783416 -0.21057639 -0.2853494
000050 54 88 f4 bd 47 b3 0f be 0a cd 19 be 70 3c 41 bd
       -0.11940065 -0.14033233 -0.15019622 -0.04717678
000060 61 67 32 be dc 36 46 be 0c 52 58 be 5a 5f 3f bc
       -0.17422248 -0.19356865 -0.21125048 -0.011680448
000070 28 40 3a be 83 3c 81 bd 4a 7e 81 be 76 fd 87 be
       -0.18188536 -0.0631037 -0.25291663 -0.26560563
000080 6c 01 73 bd 98 d0 e1 bd 27 92 bb be 38 76 6a be
       -0.059327528 -0.11026114 -0.36634943 -0.2289666
000090 04 38 43 be b1 18 bb bd 6e 97 6b be 87 c5 6e be
       -0.19064337 -0.09135569 -0.23006985 -0.23317538
0000a0 bc 9c 27 be 4c 22 bd bd 76 f3 d3 bd 8b 89 58 be
       -0.16368383 -0.09235057 -0.10349171 -0.21146218
0000b0 24 91 96 be 2d cf 3c be 63 6b 06 be f0 6b 22 be
       -0.29407609 -0.18438406 -0.13126902 -0.15861487
0000c0 81 06 83 be b2 17 96 be ed 95 2d be ec 3b 94 be
       -0.255909 -0.29314953 -0.16951723 -0.28951967
0000d0 0b 26 06 be de 5d 20 bd 88 bc 37 bd 0c ad 19 be
       -0.1310045 -0.03915202 -0.04485753 -0.15007418
0000e0 0f 3a 41 be d7 0e 29 be c9 9b 66 be 76 26 e4 bd
       -0.18869804 -0.16509567 -0.22520365 -0.11140148
0000f0 34 e6 76 be 7e 22 ef bc 29 ac 29 be c1 46 3e be
       -0.24111253 -0.029191252 -0.1656958 -0.18581678

cnn.13.running_mean f4 [64]
000000 3c 51 97 bf 82 30 23 bf 61 10 3c bf ab 72 20 bf
       -1.1821666 -0.6374589 -0.7346249 -0.6267497
000010 a6 16 a4 3e ee 9c 34 bf 6c 80 89 be 6b 8b 18 bf
       0.3204853 -0.70551956 -0.2685579 -0.59587735
000020 eb e0 9d be 18 7e 38 bf e6 0b 21 bf b2 78 3b be
       -0.3083566 -0.72067404 -0.6290878 -0.1830776
000030 56 0a 3b bf d7 41 15 bf dd 2a 93 bd c1 d6 60 be
       -0.73062646 -0.5830359 -0.0718591 -0.21956922
000040 ab d6 27 bf fa ae 73 3f 8c c5 27 bf 15 65 c1 be
       -0.6556193 0.9518887 -0.6553581 -0.37772432
000050 96 5d e8 be e8 a5 1b 3e 8b eb 11 bf 95 9b 33 bf
       -0.453839 0.15200007 -0.57000035 -0.70159274
000060 fa 7b 88 be 6c fb 0e bf 20 18 a4 be e6 71 d3 be
       -0.26657087 -0.5585239 -0.32049656 -0.41297835
000070 5c 56 83 3f 28 32 93 be c1 6b 5a bf 1f 71 55 bf
       1.026073 -0.28749204 -0.8532067 -0.83375734
000080 2b 5b 96 be ef 58 ba be 9a 3f d5 bd 92 d4 05 bf
       -0.2936643 -0.36395976 -0.10412522 -0.5227748
000090 bc ac d4 be ee 76 6d be 80 8b e7 bd b0 01 9a be
       -0.41538036 -0.231899 -0.113059044 -0.30079412
0000a0 30 c6 ad be f2 e9 cf be 93 5b f7 bd 92 fe dc be
       -0.33940268 -0.40608174 -0.12078013 -0.43162972
0000b0 24 4c 97 be 80 29 01 bf ec fb 79 be ab eb 97 be
       -0.29550278 -0.5045395 -0.24412507 -0.29671988
0000c0 a8 d3 b6 be 22 45 85 3d 7d 71 72 be ca 37 df be
       -0.35708356 0.06507327 -0.23676105 -0.4359725
0000d0 b2 b1 48 bf 5d 97 21 3f d4 2f 0b bf 22 ce 1c bd
       -0.7839614 0.6312159 -0.54369855 -0.03828252
0000e0 da 5c c4 be 50 5f 0b bf 32 a3 e4 be 1c 55 5f 3d
       -0.3835209 -0.5444231 -0.44655758 0.054524526
0000f0 f1 5c fb bd fc e3 48 bc 1f b6 a6 be 0d c4 86 be
       -0.122735865 -0.012261387 -0.32560822 -0.2632145

cnn.13.running_var f4 [64]
000000 9d f0 fa 3f 3b 68 b5 3f 1d 75 fa 3f 9b b4 fd 3f
       1.9604679 1.4172434 1.956699 1.9820741
000010 3f 85 f1 3f 42 04 02 40 10 16 87 3f 5f fb d4 3f
       1.8868788 2.0315099 1.0553608 1.6639212
000020 fa 56 eb 3f 47 ab 9e 3f 47 7f a3 3f a5 12 7c 3f
       1.8385918 1.239602 1.2773217 0.9846595
000030 24 74 f3 3f 74 c2 e1 3f fa 38 cb 3f d2 73 07 40
       1.9019818 1.7637467 1.5876763 2.116444
000040 01 55 0c 40 48 b8 b3 3f 0c 0b fe 3f ee 96 f7 3f
       2.1926882 1.4040613 1.9847121 1.9342935
000050 76 a9 cd 3f f6 9e 88 3f 9c d9 bb 3f 43 c9 14 40
       1.606734 1.0673511 1.4675784 2.324784
000060 92 69 c3 3f 68 68 13 40 64 ab bc 3f 84 aa 0e 40
       1.5266593 2.3032475 1.4739804 2.2291574
000070 65 1c 9c 3f d9 3c 00 40 26 f6 e8 3f a7 47 07 40
       1.2196165 2.0037138 1.8200119 2.1137483
000080 18 84 bf 3f a3 4c cd 3f ee c7 a6 3f 1e 39 f0 3f
       1.4962187 1.6039013 1.3029764 1.8767431
000090 01 7f b0 3f b1 28 cb 3f 46 18 b9 3f 6d 8f de 3f
       1.3788759 1.5871793 1.4460533 1.738752
0000a0 03 ab b5 3f bf 16 e9 3f 9c ff cf 3f 68 60 01 40
       1.4192814 1.8210067 1.6249881 2.0215092
0000b0 41 c6 9e 3f e8 d4 be 3f 17 92 bd 3f 2c 98 ec 3f
       1.2404252 1.4908724 1.4810208 1.8483939
0000c0 0a fe d7 3f 31 7d 84 3f d5 ad 9c 3f dd b8 a2 3f
       1.6874402 1.0350705 1.2240549 1.2712666
0000d0 52 97 01 40 dc 58 3b 40 0c 74 0d 40 9c 0f 01 40
       2.0248609 2.9272985 2.210208 2.0165777
0000e0 b1 da 89 3f 33 63 b6 3f 6f 1a b5 3f 26 86 0b 40
       1.0769864 1.4249023 1.4148692 2.1800628
0000f0 4a 7c c0 3f 41 8d 0c 40 d5 64 0e 40 9e f3 b0 3f
       1.503793 2.1961215 2.2249043 1.3824346
